Course/Recent Trends in Machine Learning/Examination/final_RTML/weights/tictactoe-final-HW-SO-SAD.pth (torch, 4097 bytes, 6 tensors)

layers.0.weight f4 [10, 27]
0.7119608 -0.043241277 -0.43717128 0.47114116 -0.27389142 0.6568671 -0.62360287 0.07730981
0.20347445 -0.13480078 0.40502527 0.37709525 0.7365996 0.21731852 0.02788288 -0.10169041
-0.4636579 0.6547748 0.08988682 -0.06458494 0.014787084 0.26507896 0.27623713 0.17954966
0.031335335 -0.029860789 -0.044885542 -0.5604765 0.064300865 0.9890577 0.90150595 0.55007684
0.29035863 0.5078927 -0.19871405 0.5143207 0.5208689 0.5112366 0.113212146 0.44127902
0.43129474 -0.020456204 0.6151741 0.22867455 0.65693814 -0.05981897 -0.11306748 0.03889388
-0.029587027 -0.007060202 -0.14071666 -0.001177886 0.04280781 -0.022987213 -0.19501202 0.12124692
0.44456258 0.14514706 0.48418808 0.42064613 0.5020839 0.6920809 -1.8312325 -0.30533037
-0.49253118 0.6949938 -0.1707093 -0.025487607 0.38016993 0.8205037 0.025878593 -0.07717995
-0.060894802 0.27853894 0.17343462 -0.095638484 0.12391494 0.18384081 0.13600147 0.21180442
-0.028395072 0.30229506 0.14317214 1.7419637 0.31170946 0.94989705 0.43231937 -0.6242145
0.761733 0.23868234 0.5119129 0.19814171 0.037225805 -0.15713209 0.61388963 -0.14667334
0.21025579 1.5298859 1.2627869 -0.017664382 0.1728396 0.029997861 -0.0859815 -0.12894584
0.16956495 -0.063938335 0.046524808 -0.022976046 0.5195721 -0.57044727 -0.30782995 0.4465831
0.120942526 -0.22151345 0.06208878 -0.06531373 -0.7451621 -0.63809115 -0.23740916 0.8084119
-0.0011014128 0.46543854 -0.88354844 -0.4379961 -0.30440792 -0.17340441 -0.012583104 -0.038924772
-0.17937317 -0.15104744 -0.20225826 -0.1538493 -0.03140392 -0.013053029 -0.15614247 -0.16716652
0.45663273 -0.82617825 -1.051321 -0.8352656 -0.513739 0.015306554 0.71411586 0.06671354
-0.3054106 0.46781203 -0.582224 -0.6375896 -0.1638469 -0.03549267 -0.2481924 -0.3213305
-0.18467271 -0.33660823 -0.30280173 -0.31850427 -0.25568017 -0.316104 -0.35341144 -0.04536667
-0.036666553 -0.3591979 -0.91605574 -0.12333949 -0.7992644 1.0228981 -0.8783656 -0.064052165
0.8538847 0.2528827 -0.36732948 -0.10266294 0.66145396 -0.20727742 0.07911918 0.33212152
0.46746457 0.08131731 0.38211763 -0.521788 0.20071803 0.08518325 -0.015201473 -0.061297636
-0.075112015 0.088824674 -0.02821243 0.2575271 0.115395024 0.60256803 0.27855274 0.68014556
0.66414344 0.4917156 0.93389386 0.0054712654 0.62273675 -0.59173054 0.14990644 0.29147792
-0.027700666 0.7695412 -0.43909395 -0.14455575 0.8383137 0.7265535 1.0930473 -0.03915947
-0.002932895 -0.18655585 0.074289046 -0.050513923 -0.18831675 -0.11308244 0.034870006 0.049582943
-0.12810545 -0.32860592 0.25061706 0.12761234 0.5316812 -0.96404546 0.07870416 -0.62529576
0.16555682 -0.94430286 0.18335854 -1.9396365 0.9760481 0.03255281 -0.7247173 0.3704526
0.48816997 -0.2248129 0.13021913 -0.20118359 -0.0054601077 0.078155465 0.07931324 0.04997005
-0.18901911 -0.08758143 -0.20343572 0.16145207 0.45965034 0.68080956 0.47100994 0.6792569
1.0308465 0.22625375 0.15727593 0.49410096 -0.2836791 0.40612653 0.22280689 -0.3103885
00000000: 1043 363f c41d 31bd ead4 dfbe 6a39 f13e
00000010: 7f3b 8cbe 7128 283f 70a4 1fbf 9b54 9e3d
00000020: 9b5b 503e 3709 0abe 795f cf3e a112 c13e
00000030: cb91 3c3f bf88 5e3e a36a e43c 1043 d0bd
00000040: 9164 edbe 529f 273f 9516 b83d 1c45 84bd
00000050: 8745 723c 6eb8 873e f46e 8d3e dedb 373e
00000060: 7b59 003d 9d9e f4bc e7d9 37bd 637b 0fbf
00000070: 2cb0 833d e332 7d3f 18c9 663f d6d1 0c3f
00000080: e3a9 943e 4205 023f b27b 4bbe 85aa 033f
00000090: aa57 053f 67e0 023f c5db e73d 53ef e13e
000000a0: aad2 dc3e c593 a7bc 0d7c 1d3f a929 6a3e
000000b0: 192d 283f bc04 75bd ec8f e7bd 304f 1f3d
000000c0: 7e60 f2bc 4459 e7bb 0718 10be 4c63 9aba
000000d0: 3e57 2f3d ae4f bcbc 3bb1 47be 4e50 f83d
000000e0: b59d e33e 6ea1 143e 80e7 f73e ee5e d73e
000000f0: 9288 003f 372c 313f d465 eabf 4354 9cbe
00000100: 0c2d fcbe 1deb 313f 6bce 2ebe 63cb d0bc
00000110: a2a5 c23e 880c 523f 58ff d33c 8610 9ebd
00000120: d46c 79bd a89c 8e3e d898 313e 1cde c3bd
00000130: 1ec7 fd3d c440 3c3e f843 0b3e 42e3 583e
00000140: c89c e8bc 6bc6 9a3e b89b 123e abf8 de3f
00000150: 6298 9f3e 742c 733f f758 dd3e 85cc 1fbf
00000160: ef00 433f 2569 743e b90c 033f a9e5 4a3e
00000170: 167a 183d 3ce7 20be df27 1d3f 8931 16be
00000180: 4b4d 573e 4dd3 c33f 00a3 a13f e5b4 90bc
00000190: ddfc 303e 13be f53c 1217 b0bd 610a 04be
000001a0: 6fa2 2d3e 1af2 82bd cc90 3e3d 4338 bcbc
000001b0: ad02 053f d508 12bf e39b 9dbe 8aa6 e43e
000001c0: b7b0 f73d 6cd4 62be ce50 7e3d 34c3 85bd
000001d0: f2c2 3ebf f159 23bf 631b 73be 15f4 4e3f
000001e0: 485d 90ba f64d ee3e 3b30 62bf 0641 e0be
000001f0: 5bdb 9bbe ed90 31be 5d29 4ebc 956f 1fbd
00000200: 9aad 37be 2eac 1abe ca1c 4fbe ac8a 1dbe
00000210: 66a1 00bd 5fdc 55bc d0e3 1fbe b32d 2bbe
00000220: c4cb e93e 6b80 53bf b091 86bf f7d3 55bf
00000230: 6684 03bf 57c8 7a3c 4cd0 363f 1ca1 883d
00000240: c75e 9cbe 0f85 ef3e a20c 15bf 1239 23bf
00000250: 7bc7 27be c360 11bd 2626 7ebe 6e85 a4be
00000260: d81a 3dbe ea57 acbe d408 9bbe fe12 a3be
00000270: 83e8 82be 62d8 a1be 58f2 b4be 67d2 39bd
00000280: ab2f 16bd cae8 b7be a182 6abf 6a99 fcbd
00000290: 979c 4cbf 53ee 823f 91dc 60bf c82d 83bd
000002a0: 3098 5a3f d779 813e 9c12 bcbe f340 d2bd
000002b0: 0c55 293f 8840 54be 3d09 a23d d50b aa3e
000002c0: 8457 ef3e b189 a63d eca4 c33e e693 05bf
000002d0: 0789 4d3e 8e74 ae3d 990f 79bc 3b13 7bbd
000002e0: 54d4 99bd b6e9 b53d c11d e7bc 98da 833e
000002f0: 3a54 ec3d e641 1a3f 779e 8e3e 051e 2e3f
00000300: 4e05 2a3f 26c2 fb3e ab13 6f3f 4d48 b33b
00000310: ad6b 1f3f a77b 17bf 1381 193e 983c 953e
00000320: 82ec e2bc a700 453f ecd0 e0be 6c06 14be
00000330: ba9b 563f 69ff 393f f9e8 8b3f ae65 20bd
00000340: d035 40bb 7f08 3fbe db24 983d b0e7 4ebd
00000350: 1bd6 40be c497 e7bd dad3 0e3d 7c17 4b3d
00000360: 132e 03be 093f a8be e150 803e cfac 023e
00000370: 421c 083f afcb 76bf a62f a13d 6213 20bf
00000380: ba87 293e d5bd 71bf 57c2 3b3e 0246 f8bf
00000390: 4ade 793f 1856 053d 1387 39bf f7ab bd3e
000003a0: 6af1 f93e 5a35 66be 2a58 053e 1203 4ebe
000003b0: b4ea b2bb f90f a03d fb6e a23d 65ad 4c3d
000003c0: 3a8e 41be e55d b3bd 7451 50be b153 253e
000003d0: 4a57 eb3e 8949 2e3f 3728 f13e c8e3 2d3f
000003e0: c7f2 833f 10af 673e f10c 213e cdfa fc3e
000003f0: 633e 91be d1ef cf3e 7d27 643e 3eeb 9ebe

layers.0.bias f4 [10]
-0.4591586 -0.1639986 -0.60190725 0.2521379 -0.105402835 0.034013372 -0.2656113 0.04203164
0.055615045 -0.27906078
00000000: d616 ebbe 40ef 27be 9816 1abf 3818 813e
00000010: 71dd d7bd 9b51 0b3d 34fe 87be 5e29 2c3d
00000020: 9acc 633d 0ee1 8ebe

layers.2.weight f4 [10, 10]
-0.13334255 0.12171529 0.094068356 -1.0025481 0.22356506 0.3754045 0.9675882 0.5079712
0.559436 -0.15615292 -0.3612206 0.168234 -0.35410377 -0.638148 0.16611725 0.37471506
-0.48154068 -0.36792192 0.5823855 -0.36222553 0.37395582 0.08838141 0.4475268 -0.91797626
0.053376645 -0.5402421 -0.4183916 0.66885597 -1.8644276 0.3537403 0.48933527 0.45661512
-0.26959616 1.0319326 0.49054033 0.25245258 -0.024202483 -0.18429545 0.0064399657 0.35396883
0.21797565 0.6437783 -0.44751224 0.8905864 0.5382633 0.061266888 -0.34110087 0.32220873
0.27361077 -0.4246419 0.13563776 0.511625 0.7903382 0.643153 0.3045549 -0.7993188
0.0050561526 0.7152107 0.38401085 0.08453669 1.1843958 -0.122342706 -0.6038869 0.4812599
-0.7287725 -0.68758 0.1256409 0.5084138 -0.36489406 -0.53414357 -0.10899495 0.07103991
0.85225594 1.0441258 -0.7299096 0.12317328 -0.5926591 0.9861128 0.35224962 0.5523823
0.32873178 -0.27996287 -0.89349884 0.109391205 -0.6005201 0.4103907 0.13040741 0.17973585
-1.0906808 0.76011974 -0.009609728 0.71140873 -0.09389526 -0.6064654 -0.7777344 -0.120357424
0.119742535 -0.5365437 -0.18015228 0.753574
00000000: f38a 08be de45 f93d e9a6 c03d 7f53 80bf
00000010: 3dee 643e 0535 c03e dcb3 773f 670a 023f
00000020: 3337 0f3f 8de6 1fbe e8f1 b8be 8945 2c3e
00000030: 174d b5be ab5d 23bf a41a 2a3e a7da bf3e
00000040: 808c f6be 4360 bcbe 3717 153f a075 b9be
00000050: 2377 bf3e 5001 b53d 3c22 e53e 7e00 6bbf
00000060: 78a1 5a3d 4e4d 0abf 6c37 d6be 253a 2b3f
00000070: 90a5 eebf 731d b53e 278a fa3e 75c9 e93e
00000080: 8208 8abe 5e16 843f 1a28 fb3e 7741 813e
00000090: 4944 c6bc f2b7 3cbe 5906 d33b 673b b53e
000000a0: 0235 5f3e a8ce 243f 5320 e5be 78fd 633f
000000b0: a0cb 093f fdf2 7a3d c6a4 aebe 8bf8 a43e
000000c0: b616 8c3e aa6a d9be a0e4 0a3e dbf9 023f
000000d0: 9b53 4a3f ada5 243f 9fee 9b3e 28a0 4cbf
000000e0: 15ae a53b 0c18 373f 129d c43e 9221 ad3d
000000f0: 489a 973f d08e fabd 5598 1abf b367 f63e
00000100: d690 3abf 3e05 30bf 02a8 003e 6827 023f
00000110: 65d3 babe a2bd 08bf bf38 dfbd 5f7d 913d
00000120: 722d 5a3f eaa5 853f 5bdb 3abf 4642 fc3d
00000130: 82b8 17bf e371 7c3f 105a b43e ed68 0d3f
00000140: 884f a83e 4b57 8fbe 57bc 64bf 7f08 e03d
00000150: afbb 19bf bb1e d23e 8589 053e ad0c 383e
00000160: 6e9b 8bbf 3597 423f 1f72 1dbc e21e 363f
00000170: 284c c0bd 5141 1bbf 9a19 47bf f47d f6bd
00000180: 933b f53d ee5a 09bf d779 38be 3aea 403f

layers.2.bias f4 [10]
-0.29647326 0.15171793 -0.28981757 -0.39112487 -0.3665326 -0.026425201 -0.060182087 -0.38822842
-0.3678825 -0.113516286
00000000: 58cb 97be f25b 1b3e f862 94be 8541 c8be
00000010: 29aa bbbe aa79 d8bc 7e81 76bd e0c5 c6be
00000020: 185b bcbe 3a7b e8bd

layers.4.weight f4 [9, 10]
0.16814406 0.7841423 -0.2611457 0.14877823 -0.31357387 -0.002868942 -0.21150807 -0.3847965
0.4823673 -0.006046719 -0.33776304 0.6991145 0.59134275 -0.48602134 0.028883647 0.25825363
-0.7926897 -0.7495976 0.15496296 -1.0864542 0.43782103 0.5518553 -0.51728547 -0.30495492
-0.41713473 -0.55808556 -0.47879004 0.37323695 -0.21020158 -0.14456724 0.03300765 0.42363498
0.45428878 0.023898626 0.14409396 -0.75330216 -0.42175004 -0.41221172 0.1601369 0.17104532
0.38793087 0.581164 0.6245318 -0.16414091 -0.41657376 -0.81160605 0.35124686 -0.19905148
0.04857213 0.09091391 0.3823744 0.2430064 -0.5707593 -0.027228678 0.27617082 -0.35089496
0.0907997 -0.33624068 -0.43247804 -0.26135108 -1.2695764 0.58886105 -1.9846363 -0.48470986
-0.26917213 0.23715083 0.32056203 -0.43583238 0.5264752 -0.73177713 -0.13446766 0.026840145
0.26307875 0.057676047 0.09752977 -0.13945173 -0.02277741 -0.9793262 -0.64345086 0.70530576
0.3321287 0.4984686 -0.27341083 -1.1010969 -1.026598 0.39481843 0.22946109 -0.24035238
-0.5682283 -0.4310735
00000000: f52d 2c3e 8dbd 483f e4b4 85be 5259 183e
00000010: c18c a0be dc04 3cbb 9295 58be 0c04 c5be
00000020: d9f8 f63e 8e23 c6bb 47ef acbe 2bf9 323f
00000030: 3d62 173f cad7 f8be 669d ec3c d239 843e
00000040: b6ed 4abf a1e5 3fbf 9cae 1e3e ee10 8bbf
00000050: 142a e03e 6446 0d3f d26c 04bf 0d23 9cbe
00000060: af92 d5be b2de 0ebf f823 f5be ea18 bf3e
00000070: 153f 57be 6f09 14be 0833 073d afe6 d83e
00000080: 8a98 e83e 0dc7 c33c 5e8d 133e 69d8 40bf
00000090: 9fef d7be 6a0d d3be edfa 233e 8126 2f3e
000000a0: e09e c63e 2ac7 143f 51e1 1f3f 8e14 28be
000000b0: 2849 d5be 6ac5 4fbf a1d6 b33e 27d4 4bbe
000000c0: 92f3 463d 1231 ba3d 94c6 c33e abd6 783e
000000d0: 481d 12bf ad0e dfbc 4366 8d3e 81a8 b3be
000000e0: 31f5 b93d bd27 acbe c36d ddbe cfcf 85be
000000f0: 7b81 a2bf 99bf 163f 9008 febf e42b f8be
00000100: eed0 89be abd7 723e b520 a43e 6c25 dfbe
00000110: 14c7 063f bf55 3bbf e4b1 09be dddf db3c
00000120: 42b2 863e b83d 6c3d b0bd c73d 6fcc 0ebe
00000130: b197 babc 1fb5 7abf 32b9 24bf eb8e 343f
00000140: c60c aa3e 4737 ff3e 81fc 8bbe bef0 8cbf
00000150: 9067 83bf a425 ca3e d9f7 6a3e ef1e 76be
00000160: 6977 11bf aab5 dcbe

layers.4.bias f4 [9]
-0.26030147 0.81842923 -0.024860028 0.4486057 -0.0147121195 -0.11564194 0.74199134 0.36317316
0.5395847
00000000: 3c46 85be 9484 513f 42a7 cbbc a5af e53e
00000010: 1a0b 71bc aed5 ecbd 25f3 3d3f d5f1 b93e
00000020: 3922 0a3f
